…
[INIT_ENV_AGENT] Set UAV state and action space
[MAIN] Load runner as singleBS
Choose SingleBS_runner
[INIT_RUNNER] Insert Agent settings into Trainer
[INIT_RUNNER] Insert Agent settings into Trainer
[INIT_RUNNER] Insert Agent settings into Trainer -> mappo
[INIT_RUNNER] Make Actor Critic Policy for Agents
[INIT_RUNNER] agent_id: 0, action_space: Box(False, True, (100,), bool)
[ACTOR] returned obs_shape: [(2, 1), (2, 4), (2, 20)]. CNN Base because length is 3
..Init CNNBase
[CNN_LAYER_INIT] is_uav: False, input_channel 2, input_width 5, input_height 5 hidden_size 64
[INIT_CNN_LAYER] Init CNNLayer: [2,5,5],Sequential(
  (0): Conv2d(2, 32, kernel_size=(2, 2), stride=(2, 2))
  (1): ReLU()
  (2): Flatten()
  (3): Linear(in_features=4, out_features=64, bias=True)
  (4): ReLU()
  (5): Linear(in_features=64, out_features=64, bias=True)
  (6): ReLU()
)
[INIT_ACTOR_NETWORK] dtype: Box, num_inputs: 64, num_outputs: 100, action_space: Box(False, True, (100,), bool), use_orthogonal: False
[INIT_ACTOR_NETWORK] self.action_out: DiagGaussian(
  (fc_mean): Linear(in_features=64, out_features=100, bias=True)
  (logstd): AddBias()
)
..Init CNNBase
[CNN_LAYER_INIT] is_uav: False, input_channel 2, input_width 5, input_height 5 hidden_size 64
[INIT_CNN_LAYER] Init CNNLayer: [2,5,5],Sequential(
  (0): Conv2d(2, 32, kernel_size=(2, 2), stride=(2, 2))
  (1): ReLU()
  (2): Flatten()
  (3): Linear(in_features=4, out_features=64, bias=True)
  (4): ReLU()
  (5): Linear(in_features=64, out_features=64, bias=True)
  (6): ReLU()
)
[INIT_RUNNER] agent_id: 1, action_space: Tuple(Box(False, True, (30,), bool), Box(0.0, 23.0, (1,), float32), Box(0.0, 20.0, (1,), float32), Box(0.0, 360.0, (1,), float32))
[ACTOR] returned obs_shape: [(2,), (40,), (20,)]. CNN Base because length is 3
..Init CNNBase
[CNN_LAYER_INIT] is_uav: True, input_channel 1, input_width 2, input_height 31 hidden_size 64
[INIT_CNN_LAYER] Init CNNLayer: [1,2,31],Sequential(
  (0): Conv2d(1, 32, kernel_size=(2, 2), stride=(2, 2))
  (1): ReLU()
  (2): Flatten()
  (3): Linear(in_features=15, out_features=64, bias=True)
  (4): ReLU()
  (5): Linear(in_features=64, out_features=64, bias=True)
  (6): ReLU()
)
[ACTLayer] type ('Tuple') action_space: Tuple(Box(False, True, (30,), bool), Box(0.0, 23.0, (1,), float32), Box(0.0, 20.0, (1,), float32), Box(0.0, 360.0, (1,), float32))
[INIT_ACTOR_NETWORK], dtype: Tuple, action_dim: 30, action_space: Tuple(Box(False, True, (30,), bool), Box(0.0, 23.0, (1,), float32), Box(0.0, 20.0, (1,), float32), Box(0.0, 360.0, (1,), float32))
[INIT_ACTOR_NETWORK], dtype: Tuple, action_dim: 1, action_space: Tuple(Box(False, True, (30,), bool), Box(0.0, 23.0, (1,), float32), Box(0.0, 20.0, (1,), float32), Box(0.0, 360.0, (1,), float32))
[INIT_ACTOR_NETWORK], dtype: Tuple, action_dim: 1, action_space: Tuple(Box(False, True, (30,), bool), Box(0.0, 23.0, (1,), float32), Box(0.0, 20.0, (1,), float32), Box(0.0, 360.0, (1,), float32))
[INIT_ACTOR_NETWORK], dtype: Tuple, action_dim: 1, action_space: Tuple(Box(False, True, (30,), bool), Box(0.0, 23.0, (1,), float32), Box(0.0, 20.0, (1,), float32), Box(0.0, 360.0, (1,), float32))
[INIT_ACTOR_NETWORK] self.action_out: ModuleList(
  (0): Categorical(
    (linear): Linear(in_features=64, out_features=30, bias=True)
  )
  (1): Categorical(
    (linear): Linear(in_features=64, out_features=1, bias=True)
  )
  (2): Categorical(
    (linear): Linear(in_features=64, out_features=1, bias=True)
  )
  (3): Categorical(
    (linear): Linear(in_features=64, out_features=1, bias=True)
  )
)
..Init CNNBase
[CNN_LAYER_INIT] is_uav: True, input_channel 1, input_width 2, input_height 31 hidden_size 64
[INIT_CNN_LAYER] Init CNNLayer: [1,2,31],Sequential(
  (0): Conv2d(1, 32, kernel_size=(2, 2), stride=(2, 2))
  (1): ReLU()
  (2): Flatten()
  (3): Linear(in_features=15, out_features=64, bias=True)
  (4): ReLU()
  (5): Linear(in_features=64, out_features=64, bias=True)
  (6): ReLU()
)
[INIT_RUNNER] agent_id: 2, action_space: Tuple(Box(False, True, (30,), bool), Box(0.0, 23.0, (1,), float32), Box(0.0, 20.0, (1,), float32), Box(0.0, 360.0, (1,), float32))
[ACTOR] returned obs_shape: [(2,), (40,), (20,)]. CNN Base because length is 3
..Init CNNBase
[CNN_LAYER_INIT] is_uav: True, input_channel 1, input_width 2, input_height 31 hidden_size 64
[INIT_CNN_LAYER] Init CNNLayer: [1,2,31],Sequential(
  (0): Conv2d(1, 32, kernel_size=(2, 2), stride=(2, 2))
  (1): ReLU()
  (2): Flatten()
  (3): Linear(in_features=15, out_features=64, bias=True)
  (4): ReLU()
  (5): Linear(in_features=64, out_features=64, bias=True)
  (6): ReLU()
)
[ACTLayer] type ('Tuple') action_space: Tuple(Box(False, True, (30,), bool), Box(0.0, 23.0, (1,), float32), Box(0.0, 20.0, (1,), float32), Box(0.0, 360.0, (1,), float32))
[INIT_ACTOR_NETWORK], dtype: Tuple, action_dim: 30, action_space: Tuple(Box(False, True, (30,), bool), Box(0.0, 23.0, (1,), float32), Box(0.0, 20.0, (1,), float32), Box(0.0, 360.0, (1,), float32))
…
[INIT_ACTOR_NETWORK], dtype: Tuple, action_dim: 1, action_space: Tuple(Box(False, True, (30,), bool), Box(0.0, 23.0, (1,), float32), Box(0.0, 20.0, (1,), float32), Box(0.0, 360.0, (1,), float32))
[INIT_ACTOR_NETWORK], dtype: Tuple, action_dim: 1, action_space: Tuple(Box(False, True, (30,), bool), Box(0.0, 23.0, (1,), float32), Box(0.0, 20.0, (1,), float32), Box(0.0, 360.0, (1,), float32))
[INIT_ACTOR_NETWORK], dtype: Tuple, action_dim: 1, action_space: Tuple(Box(False, True, (30,), bool), Box(0.0, 23.0, (1,), float32), Box(0.0, 20.0, (1,), float32), Box(0.0, 360.0, (1,), float32))
[INIT_ACTOR_NETWORK] self.action_out: ModuleList(
  (0): Categorical(
    (linear): Linear(in_features=64, out_features=30, bias=True)
  )
  (1): Categorical(
    (linear): Linear(in_features=64, out_features=1, bias=True)
  )
  (2): Categorical(
    (linear): Linear(in_features=64, out_features=1, bias=True)
  )
  (3): Categorical(
    (linear): Linear(in_features=64, out_features=1, bias=True)
  )
)
..Init CNNBase
[CNN_LAYER_INIT] is_uav: True, input_channel 1, input_width 2, input_height 31 hidden_size 64
[INIT_CNN_LAYER] Init CNNLayer: [1,2,31],Sequential(
  (0): Conv2d(1, 32, kernel_size=(2, 2), stride=(2, 2))
  (1): ReLU()
  (2): Flatten()
  (3): Linear(in_features=15, out_features=64, bias=True)
  (4): ReLU()
  (5): Linear(in_features=64, out_features=64, bias=True)
  (6): ReLU()
)
[INIT_RUNNER] Set Policy into Replay buffer and Trainer
[REPLAYBUFFER_INIT] (get_shape_from_act_space) is_uav: False, act_shape: 100
[REPLAYBUFFER_INIT] share_obs Buffer size: 41, 1, 8
[REPLAYBUFFER_INIT] obs Buffer size: 41, 1, 8
[REPLAYBUFFER_INIT] actions Buffer size : 41, 1, 100
[REPLAYBUFFER_INIT] (get_shape_from_act_space) is_uav: True, act_shape: 4
…
